…
WARNING:tensorflow:Entity <bound method QV2RH.call of <climate_invariant.QV2RH object at 0x2acff24304e0>> could not be transformed and will be executed as-is. Please report this to the AutoGraph team. When filing the bug, set the verbosity to 10 (on Linux, `export AUTOGRAPH_VERBOSITY=10`) and attach the full output. Cause: module 'gast' has no attribute 'Num'
Model: "model"
_________________________________________________________________
Layer (type)                 Output Shape              Param #   
=================================================================
input_1 (InputLayer)         [(None, 64)]              0         
_________________________________________________________________
custom_batch_normalization ( (None, 64)                256       
_________________________________________________________________
q_v2rh (QV2RH)               (None, 64)                0         
_________________________________________________________________
dense (Dense)                (None, 128)               8320      
_________________________________________________________________
leaky_re_lu (LeakyReLU)      (None, 128)               0         
_________________________________________________________________
custom_batch_normalization_2 (None, 128)               512       
_________________________________________________________________
dense_1 (Dense)              (None, 128)               16512     
_________________________________________________________________
leaky_re_lu_1 (LeakyReLU)    (None, 128)               0         
_________________________________________________________________
custom_batch_normalization_3 (None, 128)               512       
_________________________________________________________________
dense_2 (Dense)              (None, 128)               16512     
_________________________________________________________________
leaky_re_lu_2 (LeakyReLU)    (None, 128)               0         
_________________________________________________________________
custom_batch_normalization_4 (None, 128)               512       
_________________________________________________________________
dense_3 (Dense)              (None, 128)               16512     
_________________________________________________________________
leaky_re_lu_3 (LeakyReLU)    (None, 128)               0         
_________________________________________________________________
custom_batch_normalization_5 (None, 128)               512       
_________________________________________________________________
dense_4 (Dense)              (None, 128)               16512     
_________________________________________________________________
leaky_re_lu_4 (LeakyReLU)    (None, 128)               0         
_________________________________________________________________
custom_batch_normalization_6 (None, 128)               512       
_________________________________________________________________
dense_5 (Dense)              (None, 128)               16512     
_________________________________________________________________
leaky_re_lu_5 (LeakyReLU)    (None, 128)               0         
_________________________________________________________________
custom_batch_normalization_7 (None, 128)               512       
_________________________________________________________________
dense_6 (Dense)              (None, 128)               16512     
_________________________________________________________________
leaky_re_lu_6 (LeakyReLU)    (None, 128)               0         
_________________________________________________________________
custom_batch_normalization_8 (None, 128)               512       
_________________________________________________________________
dense_7 (Dense)              (None, 64)                8256      
=================================================================
Total params: 119,488
Trainable params: 117,568
Non-trainable params: 1,920
_________________________________________________________________
Traceback (most recent call last):
  File "/home/ankitesh/CBrain_project/CBRAIN-CAM/notebooks/ankitesh_devlog/scripts/RH_CBN.py", line 217, in <module>
    Inp_RH_CBN.load_weights(path_HDF5+'CI01_RH_CBN.hdf5')
…
